simple_iris_model.pt (torch, 4088 bytes, 8 tensors)

fc1.weight f4 [8, 4]
00000000: b72e 28bf c487 47bf 5ac3 0dbf ce01 dc3e
00000010: b05c e0bd 38a2 ce3d 1045 79be 2858 963e
00000020: c90d 1abd c206 20bf 3b91 403f 1f86 993f
00000030: 1678 12bf eb64 0cbf 166a 4f3f 4bec b23f
00000040: 837e 71be 7ddc 22bf 26b2 cd3e 6ca4 dc3f
00000050: ace5 6bbe c02c 70bd fcf3 4fbe aed2 a93e
00000060: 2a14 cabe 8c09 6cbe 6c93 10be feec 99be
00000070: f9a6 0dbf e713 8cbf 898a 18be 753b 83bf
-0.6569628 -0.77941537 -0.5537621 0.42970127 -0.10955179 0.100895345 -0.24342752 0.29364133
-0.037610803 -0.6251031 0.75221604 1.1994056 -0.57214487 -0.5484149 0.8102125 1.3978361
-0.23583417 -0.6361769 0.4017498 1.7237678 -0.23036832 -0.058636427 -0.20307916 0.33168548
-0.3946851 -0.23050517 -0.14118737 -0.30063623 -0.55332905 -1.0943574 -0.14896597 -1.025252

fc1.bias f4 [8]
00000000: 76ed 3fbf c869 aa3d 935d 39bf 1f26 75bf
00000010: f379 7cbf b0d6 ce3e 00e3 5f3d 1319 42bf
-0.7497171 0.083209574 -0.7240841 -0.95761293 -0.9862358 0.4039817 0.054659843 -0.7581951

fc2.weight f4 [9, 8]
00000000: 18bb 95bd d85a c4bd 4479 303f 768a 833f
00000010: 066a a83e fb45 1ebe fefd 503e 7bed 293f
00000020: 1edb 373e 16aa 5cbe 4c31 b3be a1e0 0bbe
00000030: 91d8 8abe 8d88 943e 948e d03d 18f6 153e
00000040: 852a 903e 4089 c9bb 390c 8c3f a463 763f
00000050: f3e0 023f 1e1b 77be 4c45 df3d 1720 f53e
00000060: fdff fbbe f8da 96bd cf54 9dbe 0161 4fbf
00000070: 9fb6 4fbf a3ee 57be 09d1 a23e 2d24 f7be
00000080: 5d1a 47be 1664 95be 7b8c b3be 2dac 4fbf
00000090: d6c0 45bf e4a3 123e 26a3 013e d369 963e
000000a0: 5b9c 37bf 58ce 76be b3b1 b1be a074 2dbf
000000b0: 9be0 a3be f4d2 abbd 4e1a 4f3e 6fa5 8cbe
000000c0: 02d0 253d 10c1 dc3d 7026 073f 34c5 5e3f
000000d0: e13c 183f 021e 763e 3945 83be eb47 41be
000000e0: a5c0 a53e c653 f4bd 4059 00be 4127 afbe
000000f0: 2a54 4fbe 90e0 b43d 8025 3fbd 3f66 83be
00000100: 20e0 073c 4a4d 77be 8293 99be 755c 47be
00000110: 286e 9ebe 1886 66be d3f2 b43e 94c2 883d
-0.07311076 -0.095876396 0.68935037 1.027663 0.3289339 -0.15456383 0.2040939 0.6637799
0.1795468 -0.21549258 -0.34998548 -0.13659908 -0.27118352 0.2901043 0.101834446 0.14644659
0.2815744 -0.0061503947 1.094123 0.9624579 0.51124495 -0.24131438 0.10901889 0.47876045
-0.4921874 -0.07365984 -0.30728766 -0.8100739 -0.8113803 -0.21087126 0.31800106 -0.48269787
-0.1944365 -0.29177922 -0.35068116 -0.81122094 -0.7724737 0.14320332 0.12659892 0.29377612
-0.71722955 -0.24102151 -0.34705886 -0.6775608 -0.32007298 -0.083898455 0.20224878 -0.27469966
0.040481575 0.10779011 0.52793026 0.8701966 0.59467894 0.24034885 -0.2563875 -0.18875091
0.3237354 -0.11930041 -0.12534046 -0.34209636 -0.2024695 0.088318944 -0.046666622 -0.25663945
0.008293182 -0.24150577 -0.29995352 -0.19468863 -0.30943418 -0.2251209 0.3534151 0.06677738

fc2.bias f4 [9]
00000000: 7374 56bf 7ad5 a8be a70d febe 33dc 37bf
00000010: ac6a f5be aa7f 58bf af9e bdbd bdbd 58be
00000020: 3e14 03bf
-0.8377144 -0.3297537 -0.4961979 -0.7182037 -0.47932947 -0.845698 -0.09258782 -0.2116613
-0.5120276

fc3.weight f4 [10, 9]
00000000: 11e7 acbe 4039 bdbc d6b1 e8bd 204a 6abe
00000010: 6e22 47be d0ac e9bd 0c3b 6fbe 4f19 8f3e
00000020: b3f6 d93e 4da0 a0be ecb4 d43d a9f0 a23e
00000030: 1d5b bdbe 0cd5 bbbd 8bd7 02be 56aa 8dbe
00000040: 8bab a9be 7451 c33d d41f 95bd 92e3 043e
00000050: 560f 8cbe 726a 7d3e 988e 7abe b8c1 6bbd
00000060: a096 8e3d c636 303e edc7 893e 70f9 713f
00000070: 4c53 87be c9c0 cd3f b70e ea3e 5a17 12bf
00000080: 2bc5 913e d155 d73f 9385 7abe 126d 363e
00000090: b3ea b3bf 2cd6 dd3d 178d 91bf db56 98be
000000a0: 938a 1b3f f8a2 2f3d 90e2 acbf ae49 0f3e
000000b0: 7df9 e73e 69bf a5bf f397 923e 259e 96bf
000000c0: 08da 3cbe 521b bb3e f1db 0cbf 37d3 65bf
000000d0: c671 aebd 65f0 9e3e e218 26bf 6600 7fbe
000000e0: bae2 d4be 551a 843e 1530 613e 0c7d 1c3f
000000f0: 8be8 343f 3893 773d 4c1d f3bd 05c4 0fbe
00000100: 0a60 333e 2c01 a5be 07bd 0a3f 55b5 1dbf
00000110: 54ea 113f 8678 2dbf 766f cbbd c22e 5a3e
00000120: 3cf5 703f 182a 07bd 3247 b13e 92fa 1a3f
00000130: 100b a3bc 1159 1d3f 27e0 483e 5802 9bbe
00000140: 06ee fbbd a5ce 183f d6f7 043e c202 503f
00000150: 718f cc3e 58d4 50be 6e19 713e 116b 183e
00000160: 148a e63d 3aa4 593e
-0.3377004 -0.023098588 -0.113620445 -0.22879839 -0.19446728 -0.114099145 -0.23362368 0.27948996
0.4257103 -0.313723 0.103860706 0.31824234 -0.36983576 -0.09171495 -0.12777536 -0.27669019
-0.3313869 0.0953702 -0.07281461 0.12977436 -0.2735545 0.24747637 -0.24468458 -0.05755779
0.06962323 0.17208394 0.26910344 0.94521236 -0.26430738 1.6074458 0.45714352 -0.5706688
0.2847074 1.6823064 -0.24465017 0.17815045 -1.4056 0.10831866 -1.1371182 -0.29753765
0.6075832 0.04288003 -1.3506641 0.1399295 0.45307532 -1.2949039 0.28631553 -1.1767012
-0.18442547 0.3654428 -0.55023104 -0.89775413 -0.08517794 0.3104278 -0.6488172 -0.24902496
-0.4157923 0.2580134 0.21990998 0.61128306 0.7066733 0.060443133 -0.11870822 -0.1403962
0.17517105 -0.32227457 0.5419468 -0.61604816 0.5699818 -0.6776203 -0.09933369 0.21306899
0.941242 -0.032999128 0.3462463 0.6053859 -0.019902736 0.6146403 0.19616757 -0.30275226
-0.12301259 0.59690315 0.12985167 0.8125421 0.39953187 -0.20393503 0.23544857 0.14884593
0.11256805 0.21254054

fc3.bias f4 [10]
00000000: c1e8 1a40 d829 65bf db43 4dbe 2f6d 873e
00000010: 91bc da3f 17e8 9d3f 61f9 1ebf 0a76 4cbf
00000020: 0885 efbf ede7 79bf
2.4204562 -0.89516973 -0.20045416 0.26450488 1.7088796 1.2336453 -0.6209927 -0.79867613
-1.8712473 -0.97619516

out.weight f4 [3, 10]
00000000: ef33 9c3f 7ed8 e93e 44d4 81bd 0c4f fbbf
00000010: 1861 0640 da74 f53f 0abe d6be 94a1 88bf
00000020: 9ddf afbf 8d03 c5bf db5a e63f e0bb e5be
00000030: 2f3f 883e 815f a53e f136 c1bf efe5 b6bf
00000040: 559d 963e 6ee8 fb3e a5b1 76bf c11f 20be
00000050: a3ce 2cc0 fa70 093f c85b 3abe b1e3 f93e
00000060: d915 bdbf a5aa f8bf 4dba 233f 26ba fc3c
00000070: 2c5c e23f 0eb5 3b3f
1.2203349 0.45672983 -0.063393146 -1.9633498 2.0996761 1.9176285 -0.41941863 -1.067431
-1.3740116 -1.5391709 1.7996477 -0.448699 0.26610705 0.32299426 -1.5094892 -1.428892
0.2941691 0.49200767 -0.96364814 -0.15637113 -2.700112 0.53688014 -0.18199074 0.48806527
-1.4772292 -1.9427077 0.6395615 0.030850481 1.7684379 0.7332314

out.bias f4 [3]
00000000: 8b68 4a3f 533d a63f 5e24 08c0
0.7906577 1.2987465 -2.1272197
